name: "conv4video_net"

layers {
  name: "data"
  type: DATA
  top: "data"
  top: "label"
  data_param {
    source: "examples/ucf-101/ucf101_train_lmdb"
    backend: LMDB
    batch_size: 24
  } 
  transform_param {
    is_video: true
    video_crop_size_t: 16
    video_crop_size_h: 224
    video_crop_size_w: 224
    mean_file: "examples/ucf-101/ucf101_mean.binaryproto"
    mirror: true
  }
  include: { phase: TRAIN }
}

layers {
  name: "data"
  type: DATA
  top: "data"
  top: "label"
  data_param {
    source: "examples/ucf-101/ucf101_test_lmdb"
    backend: LMDB
    batch_size: 8
  }
  transform_param {
    is_video: true
    video_crop_size_t: 16
    video_crop_size_h: 224
    video_crop_size_w: 224
    mean_file: "examples/ucf-101/ucf101_mean.binaryproto"
    mirror: false 
  }
  include: { phase: TEST }
}

layers {
  name: "conv1"
  type: MULTICONVOLUTION  
  bottom: "data"
  top: "conv1"
  blobs_lr: 1
  blobs_lr: 1
  weight_decay: 1
  weight_decay: 0
  multi_convolution_param {
    num_output: 1536 # 16x96
    kernel_size: 7
    stride: 2
    #pad: 1
    group: 16
    weight_filler {
      type: "gaussian"
      std: 0.01 
    }
    bias_filler {
      type: "constant"
      value: 0
    }
  }
}

layers {
  name: "relu1"
  type: RELU
  bottom: "conv1"
  top: "conv1"
}

layers {
  name: "pool1"
  type: POOLING
  bottom: "conv1"
  top: "pool1"
  pooling_param {
    pool: MAX
    kernel_size: 3
    stride: 2
  }
}

layers {
  name: "conv1_t"
  type: TEMPORAL_CONVOLUTION
  bottom: "pool1"
  top: "conv1_t"
  blobs_lr: 1
  blobs_lr: 1
  weight_decay: 1
  weight_decay: 0
  temporal_convolution_param {
    num_output: 96
    kernel_size: 3
    pad: 1
    group: 16
    weight_filler {
      type: "gaussian"
      std: 0.01
    }
    bias_filler {
      type: "constant"
      value: 0
    }
  }
}

layers {
  name: "relu1_t"
  type: RELU
  bottom: "conv1_t"
  top: "conv1_t"
}

#layers {
#  name: "norm1"
#  type: LRN
#  bottom: "pool1"
#  top: "norm1"
#  lrn_param {
#    local_size: 5
#    alpha: 0.0001
#    beta: 0.75
#  }
#}

layers {
  name: "pool1_t"
  type: TEMPORAL_POOLING
  bottom: "conv1_t"
  top: "pool1_t"
  temporal_pooling_param {
    pool: MAX
    kernel_size: 2
    stride: 2
    group: 16
  }
}

layers {
  name: "conv2"
  type: MULTICONVOLUTION
  bottom: "pool1_t"
  top: "conv2"
  blobs_lr: 1
  blobs_lr: 1
  weight_decay: 1
  weight_decay: 0
  multi_convolution_param {
    num_output: 2048 #8x256
    kernel_size: 5
    stride: 2
    pad: 2
    group: 8
    weight_filler {
      type: "gaussian"
      std: 0.01
    }
    bias_filler {
      type: "constant"
      value: 0
    }
  }
}

layers {
  name: "relu2"
  type: RELU
  bottom: "conv2"
  top: "conv2"
}

layers {
  name: "pool2"
  type: POOLING
  bottom: "conv2"
  top: "pool2"
  pooling_param {
    pool: MAX
    kernel_size: 3
    stride: 2
  }
}

#layers {
#  name: "norm2"
#  type: LRN
#  bottom: "pool2"
#  top: "norm2"
#  lrn_param {
#    local_size: 5
#    alpha: 0.0001
#    beta: 0.75
#  }
#}

layers {
  name: "conv2_t"
  type: TEMPORAL_CONVOLUTION
  bottom: "pool2"
  top: "conv2_t"
  blobs_lr: 1
  blobs_lr: 1
  weight_decay: 1
  weight_decay: 0
  temporal_convolution_param {
    num_output: 256
    kernel_size: 3
    pad: 1
    group: 8
    weight_filler {
      type: "gaussian"
      std: 0.01
    }
    bias_filler {
      type: "constant"
      value: 0
    }
  }
}

layers {
  name: "relu2_t"
  type: RELU
  bottom: "conv2_t"
  top: "conv2_t"
}

layers {
  name: "pool2_t"
  type: TEMPORAL_POOLING
  bottom: "conv2_t"
  top: "pool2_t"
  temporal_pooling_param {
    pool: MAX
    kernel_size: 2
    stride: 2
    group: 8
  }
}

layers {
  name: "conv3"
  type: MULTICONVOLUTION
  bottom: "pool2_t"
  top: "conv3"
  blobs_lr: 1
  blobs_lr: 1
  weight_decay: 1
  weight_decay: 0
  multi_convolution_param {
    num_output: 2048 #4x512
    pad: 1
    kernel_size: 3
    group: 4
    weight_filler {
      type: "gaussian"
      std: 0.01
    }
    bias_filler {
      type: "constant"
      value: 0
    }
  }
}

layers {
  name: "relu3"
  type: RELU
  bottom: "conv3"
  top: "conv3"
}

layers {
  name: "conv3_t"
  type: TEMPORAL_CONVOLUTION
  bottom: "conv3"
  top: "conv3_t"
  blobs_lr: 1
  blobs_lr: 1
  weight_decay: 1
  weight_decay: 0
  temporal_convolution_param {
    num_output: 512
    kernel_size: 3
    pad: 1
    group: 4
    weight_filler {
      type: "gaussian"
      std: 0.01
    }
    bias_filler {
      type: "constant"
      value: 0
    }
  }
}

layers {
  name: "relu3_t"
  type: RELU
  bottom: "conv3_t"
  top: "conv3_t"
}

layers {
  name: "conv4"
  type: MULTICONVOLUTION
  bottom: "conv3_t"
  top: "conv4"
  blobs_lr: 1
  blobs_lr: 1
  weight_decay: 1
  weight_decay: 0
  multi_convolution_param {
    num_output: 2048 #4x512
    pad: 1
    kernel_size: 3
    group: 4
    weight_filler {
      type: "gaussian"
      std: 0.01
    }
    bias_filler {
      type: "constant"
      value: 0
    }
  }
}

layers {
  name: "relu4"
  type: RELU
  bottom: "conv4"
  top: "conv4"
}

layers {
  name: "conv4_t"
  type: TEMPORAL_CONVOLUTION
  bottom: "conv4"
  top: "conv4_t"
  blobs_lr: 1
  blobs_lr: 1
  weight_decay: 1
  weight_decay: 0
  temporal_convolution_param {
    num_output: 512
    kernel_size: 3
    pad: 1
    group: 4
    weight_filler {
      type: "gaussian"
      std: 0.01
    }
    bias_filler {
      type: "constant"
      value: 0
    }
  }
}

layers {
  name: "relu4_t"
  type: RELU
  bottom: "conv4_t"
  top: "conv4_t"
}

layers {
  name: "conv5"
  type: MULTICONVOLUTION
  bottom: "conv4_t"
  top: "conv5"
  blobs_lr: 1
  blobs_lr: 1
  weight_decay: 1
  weight_decay: 0
  multi_convolution_param {
    num_output: 2048 #4x512
    pad: 1
    kernel_size: 3
    group: 4
    weight_filler {
      type: "gaussian"
      std: 0.01
    }
    bias_filler {
      type: "constant"
      value: 0
    }
  }
}

layers {
  name: "relu5"
  type: RELU
  bottom: "conv5"
  top: "conv5"
}

layers {
  name: "pool5"
  type: POOLING
  bottom: "conv5"
  top: "pool5"
  pooling_param {
    pool: MAX
    kernel_size: 3
    stride: 2
  }
}

layers {
  name: "conv5_t"
  type: TEMPORAL_CONVOLUTION
  bottom: "pool5"
  top: "conv5_t"
  blobs_lr: 1
  blobs_lr: 1
  weight_decay: 1
  weight_decay: 0
  temporal_convolution_param {
    num_output: 512
    kernel_size: 3
    pad: 1
    group: 4
    weight_filler {
      type: "gaussian"
      std: 0.01
    }
    bias_filler {
      type: "constant"
      value: 0
    }
  }
}

layers {
  name: "relu5_t"
  type: RELU
  bottom: "conv5_t"
  top: "conv5_t"
}

layers {
  name: "pool5_t"
  type: TEMPORAL_POOLING
  bottom: "conv5_t"
  top: "pool5_t"
  temporal_pooling_param {
    pool: MAX
    kernel_size: 2
    stride: 2
    group: 4
  }
}

layers {
  name: "fc6"
  type: INNER_PRODUCT
  bottom: "pool5_t"
  top: "fc6"
  blobs_lr: 1
  blobs_lr: 1
  weight_decay: 1
  weight_decay: 0
  inner_product_param {
    num_output: 4096
    weight_filler {
      type: "gaussian"
      std: 0.005
    }
    bias_filler {
      type: "constant"
      value: 0
    }
  }
}

layers {
  name: "relu6"
  type: RELU
  bottom: "fc6"
  top: "fc6"
}

layers {
  name: "drop6"
  type: DROPOUT
  bottom: "fc6"
  top: "fc6"
  dropout_param {
    dropout_ratio: 0.5
  }
}

layers {
  name: "fc7"
  type: INNER_PRODUCT
  bottom: "fc6"
  top: "fc7"
  blobs_lr: 1
  blobs_lr: 1
  weight_decay: 1
  weight_decay: 0
  inner_product_param {
    num_output: 4096
    weight_filler {
      type: "gaussian"
      std: 0.005
    }
    bias_filler {
      type: "constant"
      value: 0
    }
  }
}

layers {
  name: "relu7"
  type: RELU
  bottom: "fc7"
  top: "fc7"
}

layers {
  name: "drop7"
  type: DROPOUT
  bottom: "fc7"
  top: "fc7"
  dropout_param {
    dropout_ratio: 0.5
  }
}

layers {
  name: "fc8"
  type: INNER_PRODUCT
  bottom: "fc7"
  top: "fc8"
  blobs_lr: 1
  blobs_lr: 1
  weight_decay: 1
  weight_decay: 0
  inner_product_param {
    num_output: 101
    weight_filler {
      type: "gaussian"
      std: 0.005
    }
    bias_filler {
      type: "constant"
      value: 0
    }
  }
}

layers {
  name: "accuracy"
  type: ACCURACY
  bottom: "fc8"
  bottom: "label"
  top: "accuracy"
  include: { phase: TEST }
}

layers {
  name: "loss"
  type: SOFTMAX_LOSS
  bottom: "fc8"
  bottom: "label"
  top: "loss"
}

